models/Ashacam/onnx_models/inet.onnx (onnx, 799194 bytes, 22 tensors)

inet.conv1.weight f4 [32, 3, 7, 7]
-0.026544267 -0.010886529 -0.063508615 -0.0356515 0.014553771 -0.009924068 -0.08646985 0.011046449
-0.061142024 -0.024313156 -0.09467068 -0.052125502 -0.036026873 -0.03989055 -0.026543703 -0.028011685
-0.020174263 -0.009788949 0.019682528 -0.05320215 0.010193663 -0.02093972 -0.06902346 -0.037110556
-0.061686736 0.03450217 0.02068759 -0.009804158 -0.008763164 -0.0210243 0.00837935 0.005472006
0.022803878 -0.0011061975 -0.01429922 -0.08664433 -0.07996944 -0.009823169 -0.008722688 0.029388083
0.02257457 0.025854927 -0.04651141 0.0124305645 -0.003997025 0.019182498 -0.02140672 0.020025142
-0.0034808933 -0.031765543 -0.05691921 -0.069019265 -0.104524724 -0.036367934 -0.007802636 -0.03856413
-0.07697096 -0.05465718 -0.0030022769 -0.027113104 -0.0087338 -0.0036618665 0.029957708 -0.029365107
-0.055164557 -0.049286492 0.0014219757 -0.053177513 -0.010734843 -0.013573192 -0.020522991 -0.027983932
-0.018125005 -0.03759911 0.018776681 0.03244665 0.022379132 -0.003744899 -0.092183985 -0.030900514
-0.044959508 -0.006989077 0.018811747 0.031702936 0.004756095 0.06175331 0.020020068 0.005357695
0.09277024 0.065824665 0.056775704 0.04255435 -0.034400936 -0.014261739 -0.008046205 -0.014177516
0.008916853 0.03301788 0.080939494 0.04267014 -0.009905634 -0.009161474 -0.0096192295 -0.02906349
-0.04636594 0.012704702 -0.022495514 0.03746939 0.025834117 -0.004008591 0.038395826 0.02140439
-0.004384945 -0.0062411465 -0.025413105 -0.011319882 0.075941026 0.04827124 0.0010954244 -0.0021708496
-0.0431236 0.03863937 -0.02057487 0.022594474 0.056378335 -0.08771812 -0.002171036 0.014511161
0.03780929 -0.046831965 -0.04211922 0.03349236 0.017494347 0.024516774 0.07250438 0.0293004
0.022427455 -0.005826227 0.060032465 -0.0060977624 0.083821855 0.054233756 -0.005559214 0.06108152
0.036657024 0.08380938 0.13033219 0.05847562 0.11269151 0.05207324 0.082710415 0.09072282
0.08611871 -0.009548804 0.09006703 0.033856038 0.03969459 0.09483082 0.045685872 -0.013900561
-0.021620043 0.04478966 0.019596875 0.07067056 0.07345863 0.039058052 0.013263201 0.06440371
0.01391665 -0.04910743 0.0097244615 0.014950663 0.033416636 -0.07815632 -0.0019363564 -0.048106544
0.035105836 -0.020628361 -0.0771811 -0.061444346 -0.023007123 -0.0055542374 -0.001681177 -0.11636851
-0.07020034 -0.030163575 -0.10703609 -0.066738725 -0.02253733 -0.039671037 0.02101173 -0.027849263
-0.10668476 -0.039775345 -0.044703577 -0.058074493 0.052469347 0.07834611 0.09714792 0.08065556
0.05174667 0.035924975 0.08199483 0.12296116 0.11909177 0.047755204 0.05273539 0.032113235
0.038280737 -0.03368851 -0.015667357 0.010336898 0.06364428 0.077431075 0.112330526 0.0116328
-0.012645864 0.0020551763 -0.047498394 -0.05697085 -0.05073394 -0.012100272 0.02180402 -0.009522025
-0.069683164 -0.039738335 -0.13273476 0.017003419 -0.023086587 -0.024560675 0.010665628 -0.024436912
-0.059678435 -0.07142946 -0.09410406 -0.04703212 -0.04197555 -0.018523145 -0.019795777 -0.05277259
-0.044108853 -0.042203095 -0.073061824 -0.12434107 -0.03402966 0.09297945 0.07324022 0.024787048
0.10243516 0.0721274 0.028850676 0.08891746 0.048567012 0.03937026 0.062490623 0.07432717
00000000: 5d73 d9bc 6a5d 32bc ce10 82bd 4f07 12bd
00000010: f172 6e3c 8f98 22bc 1b17 b1bd 2afc 343c
00000020: 0f70 7abd 622c c7bc b4e2 c1bd 8d81 55bd
00000030: ea90 13bd 4664 23bd 2e72 d9bc c378 e5bc
00000040: 7f44 a5bc d461 20bc 413d a13c 7fea 59bd
00000050: 5203 273c c789 abbc 2c5c 8dbd 3d01 18bd
00000060: 3bab 7cbd 2652 0d3d 0579 a93c 9ea1 20bc
00000070: 6093 0fbc 273b acbc 8b49 093c 834e b33b
00000080: 33cf ba3c d4fd 90ba 4747 6abc 9572 b1bd
00000090: 05c7 a3bd 5bf1 20bc 9be9 0ebc 47bf f03c
000000a0: 4eee b83c b6cd d33c c082 3ebd 91a9 4b3c
000000b0: 7af9 82bb 9d24 9d3c 255d afbc c40b a43c
000000c0: b31f 64bb 961c 02bd 1e24 69bd f959 8dbd
000000d0: 0f11 d6bd 8bf6 14bd 41ad ffbb 6cf5 1dbd
000000e0: f3a2 9dbd 35e0 5fbd d9c1 44bb 4d1c debc
000000f0: 3618 0fbc edfb 6fbb de69 f53c 188f f0bc
00000100: 3bf4 61bd a2e0 49bd 9661 ba3a aad0 59bd
00000110: 32e1 2fbc 1862 5ebc d51f a8bc 8f3e e5bc
00000120: e47a 94bc 8601 1abd 8ed1 993c c7e6 043d
00000130: 7154 b73c fb6c 75bb f5ca bcbd 1323 fdbc
00000140: 7627 38bd a104 e5bb 181b 9a3c f0da 013d
00000150: 04d9 9b3b 0af1 7c3d 2001 a43c 9a8f af3b
00000160: 53fe bd3d 15cf 863d a48d 683d 784d 2e3d
00000170: ffe7 0cbd 12aa 69bc 3bd4 03bc d048 68bc
00000180: fe17 123c c23d 073d 9bc3 a53d e2c6 2e3d
00000190: 3e4b 22bc 021a 16bc f999 1dbc 8e16 eebc
000001a0: 36ea 3dbd 6227 503c 8348 b8bc 8179 193d
000001b0: 12a2 d33c 805a 83bb f144 1d3d 4258 af3c
000001c0: 96af 8fbb 8882 ccbb 252f d0bc 0777 39bc
000001d0: f886 9b3d 10b8 453d 5894 8f3a d044 0ebb
000001e0: 5fa2 30bd 5144 1e3d a18c a8bc 0c18 b93c
000001f0: f8ec 663d 8fa5 b3bd f147 0ebb 38c0 6d3c
00000200: eadd 1a3d e0d2 3fbd 3485 2cbd 492f 093d
00000210: 4e50 8f3c 67d7 c83c 2d7d 943d 6407 f03c
00000220: c8b9 b73c efe9 bebb 9ae4 753d bdcf c7bb
00000230: cbaa ab3d 3724 5e3d 112a b6bb 9e30 7a3d
00000240: ad25 163d 41a4 ab3d cd75 053e 2284 6f3d
00000250: ceca e63d c04a 553d 1464 a93d e3cc b93d
00000260: 025f b03d 9672 1cbc 1075 b83d a1ac 0a3d
00000270: cb96 223d a936 c23d 1c21 3b3d 2ebf 63bc
00000280: 841c b1bc 5d75 373d a089 a03c babb 903d
00000290: 7a71 963d 56fb 1f3d e64d 593c 18e6 833d
000002a0: a902 643c df24 49bd 5953 1f3c a0f3 743c
000002b0: e2df 083d 6c10 a0bd 57cd fdba 5e0b 45bd
000002c0: 23cb 0f3d cffc a8bc 2011 9ebd 11ad 7bbd
000002d0: 6f79 bcbc 5200 b6bb f05a dcba 9d52 eebd
000002e0: 32c5 8fbd 9a19 f7bc bd35 dbbd 50ae 88bd
000002f0: 35a0 b8bc 197e 22bd cb20 ac3c 2324 e4bc
00000300: 8a7d dabd 79eb 22bd 191b 37bd 85df 6dbd
00000310: 19ea 563d ed73 a03d 7df5 c63d be2e a53d
00000320: 51f4 533d 1126 133d e8ec a73d 10d3 fb3d
00000330: 63e6 f33d f69a 433d 1001 583d 2b89 033d
00000340: 43cc 1c3d f7fc 09bd d458 80bc 185c 293c
00000350: ef57 823d 2f94 9e3d 8c0d e63d 8097 3e3c
00000360: 9930 4fbc 23b0 063b ad8d 42bd 445a 69bd
00000370: 64ce 4fbd 3840 46bc 589e b23c 4402 1cbc
00000380: 0cb6 8ebd aac4 22bd 9feb 07be c14a 8b3c
00000390: 1520 bdbc 7833 c9bc e3be 2e3c eb2f c8bc
000003a0: 6071 74bd 9c49 92bd a1b9 c0bd c1a4 40bd
000003b0: 8eee 2bbd dabd 97bc c12a a2bc 1228 58bd
000003c0: 7cab 34bd 27dd 2cbd 70a1 95bd 88a6 febd
000003d0: af62 0bbd 036c be3d f8fe 953d 350e cb3c
000003e0: 86c9 d13d 88b7 933d 4158 ec3c 5b1a b63d
000003f0: 34ee 463d b642 213d 2bf6 7f3d d838 983d

inet.conv1.bias f4 [32]
-0.18757458 0.084490314 0.023068046 -0.04445536 -0.09522626 -0.08143342 -0.05952715 -0.09563126
-0.101115845 -0.10520275 -0.06867832 0.026213285 -0.21762578 -0.045409832 -0.059378568 0.049264893
-0.073870145 -0.11567474 -0.08754861 0.022361 -0.13891022 -0.17857637 -0.009691131 0.022054166
0.09957494 0.10371011 -0.010938186 -0.1718638 -0.09625802 -0.1545273 -0.1250187 0.111108094
00000000: 8d13 40be 4209 ad3d 33f9 bc3c d316 36bd
00000010: fc05 c3bd 91c6 a6bd bed2 73bd 52da c3bd
00000020: d315 cfbd 8a74 d7bd 38a7 8cbd 3ebd d63c
00000030: 4bd9 5ebe a9ff 39bd f136 73bd fcc9 493d
00000040: 3b49 97bd e1e6 ecbd b04c b3bd 6a2e b73c
00000050: 7b3e 0ebe b9dc 36be 8dc7 1ebc f0aa b43c
00000060: f2ed cb3d f765 d43d 1436 33bc 10fd 2fbe
00000070: ed22 c5bd 683c 1ebe e704 00be a48c e33d

inet.layer1.0.conv1.weight f4 [32, 32, 3, 3]
-0.06282007 -0.07307407 -0.033579852 0.009950533 -0.18737696 -0.047524307 0.11806239 0.12818557
0.00676826 -0.04058284 -0.084726825 -0.17107566 -0.003852926 0.03741583 -0.0876216 -0.067483395
0.06192885 0.12201799 -0.060426377 -0.09046545 -0.019615564 -0.11701224 0.030558426 -0.15445793
-0.013715471 -0.022505179 -0.05261811 0.008390998 0.009246167 -0.17424393 -0.066065736 0.018409312
-0.08058139 0.073981084 0.17263168 0.0572375 0.0676379 -0.10055924 -0.018484876 0.060480207
-0.07960954 -0.097372256 -0.025104556 0.011946178 0.016060686 -0.08396858 -0.08701697 -0.04512372
-0.0201732 -0.06548704 0.07574951 0.04742864 -0.09776598 -0.014592699 -0.016909279 -0.026360832
0.11429636 -0.07248322 0.09459918 -0.096617185 0.05387426 0.024353229 -0.07972537 0.051441852
0.03552724 0.15042742 -0.021467904 -0.0312164 0.043440275 -0.11646606 0.029892432 -0.07212786
-0.162753 0.1334942 -0.11295601 -0.030889995 0.07800629 0.19331339 -0.039156433 -0.06644144
-0.02609063 -0.10269572 -0.08728397 -0.124020785 0.096151486 0.04829134 0.0573564 -0.0069867973
0.1032045 -0.0003358891 0.00930703 -0.1082704 0.025236567 0.09184119 0.023405045 0.118083246
0.037637383 -8.857559e-05 0.06871554 -0.038207352 -0.2025662 -0.09529332 0.103740156 -0.052645694
-0.09795786 0.25216803 0.07127676 -0.072030604 -0.07777286 -0.046313647 -0.08052594 -0.03260042
-0.16980712 -0.01851066 -0.030814786 0.067947656 0.04451499 0.095500015 0.068073116 -0.077079505
-0.024976416 -0.011683727 0.010070609 -0.000810407 0.00967624 -0.069570065 -0.076672785 -0.05371232
-0.050768588 -0.22047745 -0.17599972 -0.041702155 -0.03628367 0.005910304 -0.03860223 -0.09067824
-0.063575566 -0.09874778 -0.18476564 -0.21586153 -0.0997967 -0.10498143 0.033716634 -0.04035809
-0.09821568 0.14138098 -0.110224865 0.019705467 -0.026575236 -0.08816092 0.015744943 -0.023403686
-0.09678386 -0.0011443407 -0.106573924 0.032602318 -0.22948293 -0.04905447 -0.15094326 -0.06448803
-0.15063494 -0.16872881 0.05008002 -0.17793892 0.09576114 -0.22139189 0.011179139 0.015487741
-0.0041417466 -0.0011151027 -0.09023291 -0.0492954 0.021209132 -0.086704426 -0.11624413 -0.110456735
0.12394945 -0.06602063 0.082930446 -0.051436808 -0.011384855 -0.043723106 0.085725926 -0.05623594
0.032837223 -0.12352553 -0.01780312 -0.06665688 -0.033027455 -0.033706296 -0.07121478 -0.044368066
0.13890685 0.040201273 0.03815901 -0.007293211 -0.09211518 0.07178759 -0.14417507 -0.109800994
0.113359004 0.24758205 -0.112854324 -0.031675063 0.22556524 -0.0465312 0.14949918 0.06494736
0.013566867 0.17449127 -0.07821103 -0.08059304 0.031118855 -0.09215512 -0.07505744 0.07554199
-0.088415 -0.005818113 -0.015293312 0.11843732 -0.05407951 -0.042122275 -0.06476315 0.025727782
-0.036473185 -0.064920075 -0.17061892 -0.04871076 -0.14981058 -0.21948235 -0.07129704 -0.025592702
-0.0018533388 -0.046450872 0.2136594 -0.16965133 0.10699495 -0.054528065 -0.08312464 -0.00102718
-0.05408799 -0.14476602 -0.08245498 -0.06385856 -0.1139761 -0.055189427 -0.14909117 0.058309104
-0.10146867 -0.109696716 -0.1305684 -0.046718366 0.051621687 -0.063753195 -0.028734794 -0.1126682
00000000: cfa7 80bd dca7 95bd 078b 09bd 8f07 233c
00000010: bfdf 3fbe d9a8 42bd b2ca f13d 1443 033e
00000020: 48c8 dd3b 313a 26bd 4285 adbd 752e 2fbe
00000030: 5f81 7cbb 5741 193d f472 b3bd bc34 8abd
00000040: 1ba9 7d3d 91e4 f93d a681 77bd f345 b9bd
00000050: d2b0 a0bc 1da4 efbd aa55 fa3c 382a 1ebe
00000060: dbb6 60bc c85c b8bc 1686 57bd 657a 093c
00000070: 3c7d 173c 006d 32be 794d 87bd 20cf 963c
00000080: db07 a5bd 6583 973d 5cc6 303e de71 6a3d
00000090: bd85 8a3d 01f2 cdbd 986d 97bc 18ba 773d
000000a0: 540a a3bd 1b6b c7bd 12a8 cdbc e7b9 433c
000000b0: b391 833c b8f7 abbd f435 b2bd a6d3 38bd
000000c0: 4442 a5bc 121e 86bd 8f22 9b3d 8944 423d
000000d0: 8839 c8bd 3716 6fbc 5485 8abc acf2 d7bc
000000e0: 3614 ea3d 1572 94bd 37bd c13d 3bdf c5bd
000000f0: 42ab 5c3d 6c80 c73c 0e47 a3bd b1b4 523d
00000100: 0385 113d a509 1a3e 75dd afbc 89b9 ffbc
00000110: 6eee 313d c285 eebd f9e0 f43c c5b7 93bd
00000120: b9a8 26be b4b2 083e 7b55 e7bd 040d fdbc
00000130: c3c1 9f3d f2f3 453e 7f62 20bd 7312 88bd
00000140: 04bc d5bc 2252 d2bd f0c1 b2bd 9cfe fdbd
00000150: 12eb c43d 24cd 453d 8bee 6a3d 81f1 e4bb
00000160: e25c d33d 461a b0b9 837c 183c dfbc ddbd
00000170: ebbc ce3c 3c17 bc3d f0bb bf3c a1d5 f13d
00000180: a829 1a3d a8c1 b9b8 bcba 8c3d 507f 1cbd
00000190: 846d 4fbe 2529 c3bd b875 d43d 03a3 57bd
000001a0: 219e c8bd 2b1c 813e 8df9 913d c884 93bd
000001b0: 6147 9fbd 61b3 3dbd c9ea a4bd 0588 05bd
000001c0: ebe1 2dbe aba3 97bc 4a6f fcbc 2428 8b3d
000001d0: 5a55 363d 8395 c33d eb69 8b3d dcdb 9dbd
000001e0: 579b ccbc 1a6d 3fbc 32ff 243c 7e71 54ba
000001f0: 1889 1e3c c07a 8ebd 9f06 9dbd 7301 5cbd
00000200: b9f2 4fbd d7c4 61be 4539 34be e1cf 2abd
00000210: 309e 14bd 39ab c13b 5f1d 1ebd 83b5 b9bd
00000220: e833 82bd 473c cabd 3433 3dbe ce0a 5dbe
00000230: 3662 ccbd 8100 d7bd 741a 0a3d 864e 25bd
00000240: 4d25 c9bd 2dc6 103e 93bd e1bd 5c6d a13c
00000250: 4fb4 d9bc b68d b4bd 8afb 803c 16b9 bfbc
00000260: 9e36 c6bd b4fd 95ba 6e43 dabd 028a 053d
00000270: 93fd 6abe 57ed 48bd df90 1abe 4d12 84bd
00000280: 0c40 1abe 3fc7 2cbe b520 4d3d 9f35 36be
00000290: 6b1e c43d 8eb4 62be b528 373c 4bc0 7d3c
000002a0: 7db7 87bb a328 92ba 08cc b8bd f9e9 49bd
000002b0: c6be ad3c 1792 b1bd 6711 eebd 2437 e2bd
000002c0: 36d9 fd3d d335 87bd 70d7 a93d 67af 52bd
000002d0: 8b87 3abc 0017 33bd 1391 af3d a857 66bd
000002e0: 5380 063d f4fa fcbd d9d7 91bc 6783 88bd
000002f0: cc47 07bd 9d0f 0abd 0ed9 91bd 4abb 35bd
00000300: 993d 0e3e 17aa 243d 9f4c 1c3d e3fb eebb
00000310: e2a6 bcbd 5f05 933d a1a2 13be 58df e0bd
00000320: c428 e83d 2686 7d3e 2b20 e7bd b6bd 01bd
00000330: 93fa 663e 8097 3ebd 5016 193e 1f03 853d
00000340: 9147 5e3c d7ad 323e 1b2d a0bd f70d a5bd
00000350: f8ec fe3c d3bb bcbd b7b7 99bd c2b5 9a3d
00000360: ec12 b5bd dfa5 bebb cd90 7abc 448f f23d
00000370: 7a82 5dbd 6888 2cbd 8ba2 84bd 12c3 d23c
00000380: e864 15bd d1f4 84bd bab6 2ebe ef84 47bd
00000390: f267 19be fbbf 60be 2f04 92bd c9a7 d1bc
000003a0: bbeb f2ba 4543 3ebd 88c9 5a3e 14b9 2dbe
000003b0: 2b20 db3d d258 5fbd 403d aabd 71a2 86ba
000003c0: 5e8b 5dbd 8b3d 14be 28de a8bd 47c8 82bd
000003d0: 4d6c e9bd 4f0e 62bd 5bab 18be 87d5 6e3d
000003e0: cece cfbd aca8 e0bd b9b3 05be c25b 3fbd
000003f0: 4371 533d 0991 82bd 3b65 ebbc 96be e6bd

inet.layer1.0.conv1.bias f4 [32]
-0.064457044 -0.10089055 -0.040531743 0.07608002 -0.029678822 -0.0133630885 0.08321137 0.09180804
0.13558978 -0.06178623 -0.08575883 -0.13310668 -0.010453523 -0.091136076 -0.012024616 0.05289905
-0.11044329 -0.018283151 -0.021698045 0.062690735 -0.028134111 -0.049723055 -0.115528725 -0.11401404
-0.004617722 -0.08516107 -0.09032308 0.04275994 0.13245781 -0.039976977 -0.049961142 0.12801439
00000000: 0e02 84bd b49f cebd 9d04 26bd d7cf 9b3d
00000010: 0021 f3bc dbf0 5abc b96a aa3d db05 bc3d
00000020: 0cd8 0a3e 8f13 7dbd 53a2 afbd 1e4d 08be
00000030: 4145 2bbc 8da5 babd e502 45bc adac 583d
00000040: 1730 e2bd 8cc6 95bc 19c0 b1bc 0064 803d
00000050: 8279 e6bc 67aa 4bbd 539a ecbd 3180 e9bd
00000060: 4250 97bb ed68 aebd 4ffb b8bd 0c25 2f3d
00000070: 05a3 073e e6be 23bd 0ea4 4cbd 3416 033e

inet.layer1.0.conv2.weight f4 [32, 32, 3, 3]
0.0032945643 -0.024368325 -0.06751676 0.09750553 0.06278106 -0.17271121 -0.17540115 -0.09654707
-0.1636909 -0.07212909 -0.03853587 0.060161 0.07377725 -0.008108721 -0.052020285 -0.015462862
0.11351049 0.11350349 0.1907279 -0.055865433 -0.049112525 -0.12257671 0.07450495 -0.06971924
0.14622486 0.022828793 -0.063563526 0.020175492 -0.043359898 -0.004199316 0.030394662 -0.012624448
0.072364695 -0.021565849 0.13361974 0.023390058 -0.017845396 0.05139941 0.103569895 0.07423026
-0.0021567547 0.102917664 -0.07233072 0.0053737885 -0.18283188 0.06294469 -0.022003183 -0.14918603
-0.037333935 0.035548516 -0.045405027 -0.020237789 0.029520707 -0.11606306 0.11580024 -0.040999904
0.10332419 -0.019642979 -0.026367623 0.08534842 -0.16957854 -0.12278276 0.00035801242 0.027361918
0.12101175 0.06689769 0.050974745 0.047783002 -0.04336643 0.023246543 0.04049224 -0.09628483
0.027836068 0.059380148 -0.054697298 0.0044770758 0.024807345 0.025143124 -0.0060153743 -0.03891249
0.08077618 0.10162579 0.009377567 -0.012067566 -0.16924076 0.039927095 0.052013338 0.13547643
-0.07222421 -0.005158568 -0.11644969 -0.14018591 0.1638136 -0.20924224 -0.00077221397 -0.03506901
-0.1026351 -0.030950528 -0.0913494 0.054603606 -0.014537863 -0.0025223137 -0.1644691 -0.16223718
-0.013357883 -0.18522193 -0.070874386 -0.12871476 0.18066621 0.0034784458 0.026715366 -0.05649251
0.044803876 -0.03435379 0.055806674 -0.007967551 0.09333651 0.21340463 -0.01604862 0.08937431
0.119736604 -0.030455109 0.035492588 0.04393689 0.07542821 -0.10130795 -0.22510827 -0.13265249
-0.05286907 0.061604634 -0.0049507776 0.029330682 -0.07060055 0.09021668 -0.07630609 -0.12934136
-0.051445957 -0.028737985 0.016687969 -0.056081362 0.1782882 -0.025078615 0.10523115 0.031570483
0.038180374 0.12162562 0.082035005 -0.10998197 0.010145727 0.096670024 0.07606638 -0.17867196
-0.07754937 0.11268807 -0.0028542993 0.12847434 -0.058299974 0.26941985 0.06371652 0.0075306934
0.14216588 0.095624305 0.01813138 0.07895505 -0.0039063543 0.09968773 0.10464754 0.012446553
-0.015142494 -0.043352798 0.04356096 0.22445524 0.34543192 0.067180365 -0.012209441 -0.034724426
0.041147657 -0.0764871 -0.2700288 -0.14055148 0.027639074 0.01204563 0.05030676 -0.022404488
-0.0069580744 -0.08126313 0.11791834 -0.01963773 -0.08713855 0.23266572 0.09056659 0.12226428
0.030199556 -0.06618177 0.04555434 0.027080074 -0.088491306 0.05258547 0.16636656 -0.13825014
-0.08690691 0.09850958 0.09035469 -0.14768784 -0.027900193 0.029234875 -0.13002984 0.06386789
-0.003995921 -0.018277343 -0.10073315 0.03114145 -0.0076229926 0.019077554 -0.023855837 0.24136093
0.0014373672 0.06808579 -0.06368488 -0.07430282 0.03675403 0.09055364 0.02671811 0.07556151
-0.016917944 0.07672696 0.0080719385 -0.11033573 -0.024920916 0.016838368 -0.0780393 0.009580151
-0.110762 0.14036733 -0.041253693 -0.038935117 -0.06403876 -0.08232928 -0.0060016406 -0.07496174
0.116040036 -0.019470204 0.16303661 -0.1839302 -0.009359426 0.1769577 0.001955193 -0.15575397
-0.15560256 -0.153284 -0.03211165 -0.05696278 0.013230727 0.081602715 -0.0088630095 -0.05364574
00000000: 9ee9 573b 15a0 c7bc 3a46 8abd fbb0 c73d
00000010: 5b93 803d 35db 30be 5c9c 33be 78ba c5bd
00000020: 969e 27be 6bb8 93bd cad7 1dbd 616b 763d
00000030: 8718 973d 71da 04bc 3913 55bd f257 7dbc
00000040: 3078 e83d 8574 e83d 2d4e 433e 27d3 64bd
00000050: 372a 49bd 8009 fbbd 0d96 983d f6c8 8ebd
00000060: f8bb 153e 7303 bb3c 982d 82bd 1347 a53c
00000070: 269a 31bd 6a9a 89bb 3afe f83c c6d6 4ebc
00000080: f133 943d ddaa b0bc 9dd3 083e 829c bf3c
00000090: 8230 92bc 3088 523d 741c d43d 0906 983d
000000a0: 5758 0dbb 7fc6 d23d 2122 94bd 9b16 b03b
000000b0: 4838 3bbe 25e9 803d 0540 b4bc 39c4 18be
000000c0: 78eb 18bd 529b 113d 9ffa 39bd b8c9 a5bc
000000d0: 69d5 f13c 78b2 edbd ad28 ed3d 84ef 27bd
000000e0: a29b d33d 50ea a0bc ea00 d8bc 27cb ae3d
000000f0: ffa5 2dbe 8775 fbbd 9db3 bb39 1a26 e03c
00000100: 02d5 f73d a801 893d e5ca 503d 1cb8 433d
00000110: ffa0 31bd 896f be3c 31db 253d fb30 c5bd
00000120: 7708 e43c 9938 733d 460a 60bd 6fb4 923b
00000130: c638 cb3c f4f8 cd3c 9e1c c5bb b462 1fbd
00000140: fb6d a53d 2f21 d03d 5ea4 193c 0ab7 45bc
00000150: 734d 2dbe 988a 233d f00b 553d 55ba 0a3e
00000160: 49ea 93bd 3409 a9bb 2d7d eebd e58c 0fbe
00000170: c1be 273e 9943 56be 676e 4aba 86a4 0fbd
00000180: 5a32 d2bd f68b fdbc 6515 bbbd 08a8 5f3d
00000190: 3830 6ebc 674d 25bb 966a 28be 8121 26be
000001a0: 06db 5abc d1aa 3dbe 9726 91bd cdcd 03be
000001b0: 9000 393e a3f6 633b 2fda da3c b164 67bd
000001c0: 4584 373d 8fb6 0cbd 8a95 643d 558a 02bc
000001d0: 3627 bf3d be86 5a3e 6578 83bc e109 b73d
000001e0: 7738 f53d fe7c f9bc ad60 113d 2bf7 333d
000001f0: 1b7a 9a3d 8b7a cfbd c882 66be 0ed6 07be
00000200: 3d8d 58bd 2455 7c3d 223a a2bb e646 f03c
00000210: 0597 90bd 86c3 b83d 5e46 9cbd 1072 04be
00000220: ffb8 52bd ec6b ebbc 35b5 883c 92b5 65bd
00000230: 2f91 363e ab71 cdbc 6e83 d73d 0d50 013d
00000240: 0663 1c3d da16 f93d f801 a83d 3a3e e1bd
00000250: 433a 263c effa c53d b1c8 9b3d c8f5 36be
00000260: 34d2 9ebd 01c9 e63d 320f 3bbb c78e 033e
00000270: f4cb 6ebd 66f1 893e cf7d 823d 09c4 f63b
00000280: ef93 113e add6 c33d 4388 943c 2fb3 a13d
00000290: e000 80bb 1529 cc3d 7351 d63d a1ec 4b3c
000002a0: 3918 78bc b492 31bd fa6c 323d 98d7 653e
000002b0: 74dc b03e dc95 893d 1b0a 48bc 333b 0ebd
000002c0: 728a 283d 45a5 9cbd 3741 8abe baec 0fbe
000002d0: 576b e23c 095b 453c 760e 4e3d 9e89 b7bc
000002e0: 8f00 e4bb 496d a6bd 2c7f f13d 4edf a0bc
000002f0: b275 b2bd ec3f 6e3e fa7a b93d b265 fa3d
00000300: 0f65 f73c 4f8a 87bd 3097 3a3d 08d7 dd3c
00000310: ee3a b5bd dd63 573d ff5b 2a3e 7291 0dbe
00000320: 40fc b1bd 64bf c93d e10b b93d 7b3b 17be
00000330: f28e e4bc fa7d ef3c 8b26 05be 2bcd 823d
00000340: 37f0 82bb 5eba 95bc 2f4d cebd 5b1c ff3c
00000350: 4cca f9bb 8848 9c3c 516d c3bc 5227 773e
00000360: 0a66 bc3a 9070 8b3d 386d 82bd 142c 98bd
00000370: 658b 163d 3074 b93d f0df da3c febf 9a3d
00000380: 8097 8abc 0623 9d3d 2a40 043c b3f7 e1bd
00000390: f326 ccbc 9ef0 893c 12d3 9fbd 11f6 1c3c
000003a0: 30d7 e2bd 74bc 0f3e a2f9 28bd 6e7a 1fbd
000003b0: c126 83bd 419c a8bd 69a9 c4bb 8a85 99bd
000003c0: 66a6 ed3d fa7f 9fbc 12f3 263e 3358 3cbe
000003d0: 4758 19bc 6634 353e b222 003b f87d 1fbe
000003e0: 4756 1fbe 7bf6 1cbe 8187 03bd ce51 69bd
000003f0: b1c5 583c 531f a73d 2836 11bc a3bb 5bbd

inet.layer1.0.conv2.bias f4 [32]
-0.083082005 -0.038493495 -0.0651223 -0.10479016 -0.03717014 0.048459526 -0.082446635 -0.065508395
-0.13136809 0.03339875 -0.018642433 0.082027756 0.08798501 -0.11057385 -0.06065465 -0.0011949647
-0.11562209 -0.033447262 0.03665695 -0.09989484 0.018587027 0.18988186 0.0442984 0.04173992
0.051145844 -0.0706072 -0.024856798 -0.08530675 -0.07898229 -0.046316 0.10638185 0.060608957
00000000: e626 aabd 5bab 1dbd d75e 85bd 399c d6bd
00000010: b73f 18bd 7f7d 463d c8d9 a8bd 4429 86bd
00000020: 5b85 06be 21cd 083d 04b8 98bc 2bfe a73d
00000030: 7c31 b43d 8b74 e2bd 0371 78bd 5da0 9cba
00000040: 46cb ecbd ffff 08bd 9925 163d aa95 ccbd
00000050: d243 983c 6470 423e 3d72 353d 7af7 2a3d
00000060: 4e7e 513d 829a 90bd 7ca0 cbbc 4eb5 aebd
00000070: 78c1 a1bd d9b5 3dbd bade d93d 1941 783d

inet.layer1.1.conv1.weight f4 [32, 32, 3, 3]
-0.18185467 0.062241107 -0.041629635 -0.055549286 0.04958008 -0.0073124846 0.023712454 -0.18265049
0.024358165 -0.12705696 -0.07417494 -0.03644234 -0.118485264 -0.26127 -0.11758451 0.013284666
0.0199604 0.061531965 -0.05725193 -0.0010707044 -0.028130922 -0.07743014 -0.013387484 0.026815552
0.08111072 0.12186202 0.0634848 -0.042696998 0.00050839735 0.023373319 -0.007625595 -0.15312357
-0.033195622 -0.07957423 0.0037069418 0.07747097 -0.06819234 -0.09067694 0.077600114 -0.19292894
-0.120381355 0.00021335413 0.097298376 -0.014046688 0.029397864 0.029413022 -0.17556606 -0.019278131
-0.02141598 0.02425334 -0.13132195 -0.07232146 -0.027968317 -0.05546369 -0.15968587 0.11344204
-0.118331835 0.017880378 -0.13713577 -0.025667595 -0.1189763 -0.093818024 -0.15022637 0.021780504
-0.028644446 -0.040462263 -0.016143635 -0.1197587 0.09466218 -0.104007505 0.010348838 0.02430839
-0.026339978 0.0037083074 -0.19962108 -0.03171661 0.12455953 0.08361178 -0.03861024 0.122756466
0.05811524 0.015476531 -0.15610877 -0.06799471 -0.17029609 -0.111409545 0.015471597 -0.07519764
0.09501091 -0.015120551 -0.24114938 -0.15542692 -0.19215089 0.031492412 0.08955026 -0.047667023
0.027328627 -0.03533718 -0.11354144 0.038518995 -0.018252686 -0.0015355024 -0.09570148 -0.069978215
-0.14982899 -0.14003615 0.058053575 -0.123155594 -0.1545272 -0.08844892 -0.16616407 -0.0076253
0.04425082 -0.03210148 0.047090195 -0.07756477 -0.0038131913 -0.046859697 -0.18241023 0.023262965
-0.13442005 0.010236012 -0.10076608 -0.13138677 -0.16117772 -0.10924976 0.03056243 -0.12747715
0.046633363 -0.033470612 -0.130124 -0.15618514 -0.048487052 -0.097999044 -0.07778036 0.008259404
-0.06340949 -0.015826538 -0.0018150606 -0.1374884 0.01932507 0.1497868 -0.062725775 -0.07044947
-0.00988437 -0.040973064 -0.05167921 -0.18444192 -0.15769841 0.0034037859 -0.085481234 -0.08287712
-0.010206379 -0.12797792 -0.21726717 -0.048184995 0.008483619 -0.13937682 -0.037780106 -0.12766415
-0.18840382 0.030222578 -0.023579197 -0.11400193 0.0029302938 0.016496666 0.10142785 -0.03014965
-0.05621488 -0.053864367 0.16742314 -0.17319347 -0.008875587 -0.024460692 -0.019846989 0.15318076
0.10676978 -0.050855592 0.093753114 -0.2205282 -0.066884875 0.04308859 -0.028362414 -0.02216459
-0.08049285 -0.08277538 -0.19362198 0.0943859 -0.24504325 -0.06808229 -0.07756057 -0.066723704
-0.05513984 -0.16889313 -0.113903046 0.015273814 0.0343652 0.070902005 -0.043753907 0.0017009008
-0.07600743 -0.18114845 -0.099762 -0.030888 0.02938356 -0.0655455 -0.025013214 -0.059368204
-0.040573705 -0.062314562 -0.04057725 -0.04072148 -0.050510336 -0.11203022 0.056849044 -0.1793375
-0.07809573 -0.14386708 -0.13548192 0.09236921 0.037662145 0.018398665 -0.029445237 -0.06355573
0.03040558 -0.0765588 -0.16762038 0.018386016 0.040840585 -0.13163638 -0.11288046 -0.0033687472
-0.093212254 0.01525489 -0.0035747506 -0.12924786 -0.043896653 0.061806515 -0.080111355 -0.13134861
0.038630106 -0.15257217 0.05718639 -0.04155514 -0.22289157 -0.091160364 -0.055392846 -0.08900823
-0.093381196 -0.1303777 -0.024596704 -0.121789865 0.0379026 0.03080273 -0.08410279 -0.019094432
00000000: 1c38 3abe 88f0 7e3d d683 2abd a687 63bd
00000010: 7b14 4b3d 919d efbb 9f40 c23c bb08 3bbe
00000020: c68a c73c 381b 02be 08e9 97bd 9044 15bd
00000030: 67a8 f2bd 2ec5 85be 26d0 f0bd eea7 593c
00000040: fe83 a33c f108 7c3d 0081 6abd e156 8cba
00000050: d272 e6bc b193 9ebd 2d57 5bbc 4aac db3c
00000060: 611d a63d cb92 f93d 5204 823d 0ce3 2ebd
00000070: f845 053a 6779 bf3c 21e0 f9bb 6dcc 1cbe
00000080: 22f8 07bd d0f7 a2bd 2af0 723b 1aa9 9e3d
00000090: 6da8 8bbd d5b4 b9bd cfec 9e3d 2a8f 45be
000000a0: 808a f6bd d0b7 5f39 5f44 c73d 1424 66bc
000000b0: cad3 f03c 94f3 f03c 97c7 33be 2ced 9dbc
000000c0: 9170 afbc f1ae c63c 4379 06be 461d 94bd
000000d0: d01d e5bc e52d 63bd b184 23be 4d54 e83d
000000e0: f657 f2bd df79 923c 526d 0cbe d944 d2bc
000000f0: d9a9 f3bd aa23 c0bd f1d4 19be 076d b23c
00000100: c2a7 eabc c2bb 25bd a83f 84bc 0d44 f5bd
00000110: 3fde c13d e301 d5bd 2c8e 293c 6422 c73c
00000120: f0c6 d7bc 1307 733b 7869 4cbe 47e9 01bd
00000130: 1119 ff3d a73c ab3d c525 1ebd be67 fb3d
00000140: 3f0a 6e3d 4791 7d3c fada 1fbe cf40 8bbd
00000150: 1962 2ebe b02a e4bd 957c 7d3c 3801 9abd
00000160: 1495 c23d 30bc 77bc ddef 76be 3c28 1fbe
00000170: 34c3 44be 30fe 003d 2066 b73d 7f3e 43bd
00000180: 49e0 df3c b8bd 10bd 6a88 e8bd 18c6 1d3d
00000190: a886 95bc e942 c9ba 23ff c3bd bd50 8fbd
000001a0: c56c 19be a365 0fbe 96c9 6d3d 0039 fcbd
000001b0: 613c 1ebe b524 b5bd ea26 2abe a7dd f9bb
000001c0: 5940 353d d77c 03bd a6e1 403d 47da 9ebd
000001d0: bce6 79bb f4ef 3fbd bfc9 3abe f991 be3c
000001e0: 69a5 09be f2b4 273c 725e cebd 418a 06be
000001f0: c60b 25be 57be dfbd 105e fa3c 5f89 02be
00000200: a002 3f3d 7b18 09bd 3a3f 05be ffee 1fbe
00000210: 5c9a 46bd b9b3 c8bd 4f4b 9fbd 7452 073c
00000220: d6dc 81bd a8a6 81bc 54e7 edba c2c9 0cbe
00000230: 9c4f 9e3c b661 193e 5f76 80bd d047 90bd
00000240: 0df2 21bc 5fd3 27bd 94ad 53bd 58de 3cbe
00000250: b17b 21be 0d12 5f3b c910 afbd 7bbb a9bd
00000260: a838 27bc a50c 03be 497b 5ebe a15d 45bd
00000270: e1fe 0a3c ccb8 0ebe 50bf 1abd 64ba 02be
00000280: eeec 40be 5795 f73c 2929 c1bc d879 e9bd
00000290: 2c0a 403b 0424 873c 68b9 cf3d 66fc f6bc
000002a0: 9341 66bd e2a0 5cbd f970 2b3e a159 31be
000002b0: e96a 11bc ca61 c8bc 2796 a2bc 6bdb 1c3e
000002c0: 1daa da3d f44d 50bd a201 c03d 25d2 61be
000002d0: f0fa 88bd a97d 303d 4b58 e8bc 8492 b5bc
000002e0: 6fd9 a4bd 2386 a9bd d744 46be 654d c13d
000002f0: 9eec 7abe ba6e 8bbd 13d8 9ebd 70a6 88bd
00000300: 50da 61bd 52f2 2cbe 0046 e9bd 053f 7a3c
00000310: 86c2 0c3d 1235 913d 4c37 33bd c3f0 de3a
00000320: c9a9 9bbd fb7e 39be 0550 ccbd d508 fdbc
00000330: cbb5 f03c b83c 86bd 83e8 ccbc 132c 73bd
00000340: 9d30 26bd 8e3d 7fbd 5534 26bd 91cb 26bd
00000350: ede3 4ebd 1a70 e5bd 8bda 683d 40a4 37be
00000360: a7f0 9fbd e451 13be c6bb 0abe 122c bd3d
00000370: 9f43 1a3d ccb8 963c 2337 f1bc 8229 82bd
00000380: 1f15 f93c dcca 9cbd ada4 2bbe 459e 963c
00000390: 7548 273d b0cb 06be df2d e7bd 33c6 5cbb
000003a0: 11e6 bebd a5ef 793c 5d46 6abb 8d59 04be
000003b0: facc 33bd d428 7d3d 6c11 a4bd 4080 06be
000003c0: 9a3a 1e3d e13b 1cbe 473c 6a3d b935 2abd
000003d0: b03d 64be 49b2 babd 9ce3 62bd f249 b6bd
000003e0: a43e bfbd bb81 05be 077f c9bc f76c f9bd
000003f0: c23f 1b3d 0256 fc3c 153e acbd ed6b 9cbc

inet.layer1.1.conv1.bias f4 [32]
0.02025443 -0.031269602 -0.056552626 -0.08887228 -0.030970832 -0.025055142 0.03855368 0.061217956
-0.051163428 -0.021973481 0.008033369 0.025537696 0.23666121 0.045012094 0.09197723 0.009806228
0.097723566 0.068394646 -0.003371833 -0.030152144 0.011306788 0.102858186 0.017276276 -0.05558369
0.00033841282 -0.0420758 0.03330284 -0.059130464 -0.06383058 -0.050939895 0.018636288 -0.070429094
00000000: 9eec a53c 8e14 00bd baa3 67bd ac02 b6bd
00000010: 8bb6 fdbc 7140 cdbc 77ea 1d3d aebf 7a3d
00000020: be90 51bd bb01 b4bc 649e 033c 6e34 d13c
00000030: 5157 723e 9a5e 383d 8f5e bc3d 4daa 203c
00000040: 4b23 c83d 7e12 8c3d f8f9 5cbb a101 f7bc
00000050: 1b40 393c 50a7 d23d fa86 8d3c b9ab 63bd
00000060: 006d b139 ad57 2cbd 8f68 083d c932 72bd
00000070: 9bb9 82bd 5aa6 50bd 21ab 983c 213d 90bd

inet.layer1.1.conv2.weight f4 [32, 32, 3, 3]
0.04515076 -0.058737427 0.013997514 -0.01596664 0.014040561 0.07449309 0.108330905 -0.07387287
0.014121656 0.060966082 -0.05608235 0.10801099 0.07827211 0.016141605 -0.022016035 -0.14192407
0.13094774 -0.008162699 0.07572547 0.059198394 0.056782775 0.14680178 -0.05580226 -0.088671625
0.10795753 0.059121504 0.063309856 0.08184458 0.03705349 -0.03470733 -0.02476943 -0.076838374
-0.033012353 -0.027993692 -0.033312812 0.06774733 0.10191941 -0.24402915 -0.060078766 0.027592937
-0.036594093 -0.16752003 -0.11162087 0.047616545 0.002365146 0.087145485 0.069879174 -0.13685584
-0.17060184 -0.026675489 -0.11039286 0.0738133 0.0228457 0.13535555 -0.053757377 -0.0066076554
0.15138908 -0.0767736 0.10894544 0.06312009 -0.0048364364 -0.08392052 -0.05921318 -0.04721242
-0.10186823 0.11210108 -0.15395789 0.26941386 0.075870715 0.056983966 0.023250481 -0.09486582
0.10911369 0.16516839 -0.008004808 0.021192594 -0.10948448 -0.11708881 0.10762708 0.14060694
-0.003984851 0.041546382 -0.09147365 -0.15950452 -0.06259222 -0.026703382 0.061309297 0.08671853
-0.096046895 0.083694614 -0.07636991 0.033996865 0.0937807 -0.12066427 -0.11131909 -0.06209028
-0.0338743 -0.079320796 -0.061575077 0.07490273 -0.08354579 -0.09629992 -0.17253797 -0.30755407
-0.22016612 0.051767386 0.030253354 0.0008073341 -0.07956918 -0.079576895 0.047332954 -0.028958764
-0.04278695 0.013750264 -0.030590447 0.072723314 0.18973573 -0.06429514 -0.020141564 -0.0495493
0.037567854 -0.022499414 -0.046927962 -0.056680106 -0.09814875 0.06255689 -0.13120192 0.013044024
0.027277403 0.06629679 -0.0122463135 0.080422096 -0.12195071 -0.00018550927 -0.16649716 0.01521825
0.091843545 -0.088043876 0.04931576 0.117822 0.004199335 -0.07583428 -0.009909624 -0.09135203
0.026986443 0.07687582 0.0050588157 0.026532868 0.117657825 0.026114056 -0.033725794 -0.083947316
0.034434143 0.110706486 0.11378872 0.071481265 -0.115511835 0.0070851585 -0.019420192 -0.046269972
0.08662109 0.019074924 -0.12560004 0.09080414 0.19968574 -0.14124115 0.022119265 0.022338107
-0.043648653 -0.0075877234 -0.1481481 -0.13632932 0.023484517 -0.07800216 -0.16822767 0.10636466
-0.033330586 0.058423012 0.07063155 0.0046748416 -0.054852672 -0.106585175 -0.11638083 0.06296035
-0.13166015 -0.010752586 -0.04983838 -0.01547771 -0.111159176 -0.08595889 -0.09356531 0.108374745
0.0070029236 0.092183195 0.012580556 0.12108108 0.02702206 -0.17225689 -0.07386845 0.051596034
0.1689162 0.11392579 0.063589856 0.21910347 0.02655047 -0.023201706 0.17359717 -0.02909642
0.031445894 0.0068349284 -0.17985679 0.17277664 -0.03856852 -0.08941271 0.007791349 -0.055428
-0.032521956 0.036450192 0.11089205 -0.06435622 -0.024687836 0.15811819 0.09720513 0.021004358
0.025338264 -0.18943436 -0.024021178 -0.17373234 0.059976593 -0.06774514 0.10297594 -0.083067626
-0.15483499 0.037958153 -0.004114314 0.10889264 0.015227614 -0.059298646 -0.12075317 -0.10749283
-0.0009024683 -0.022902086 -0.13638322 0.09787186 0.09127694 0.113464735 0.005313102 0.0133045055
0.099723816 0.086939156 0.024749365 0.09795298 -0.049573176 0.10239359 0.059389677 -0.053655397
00000000: 01f0 383d a896 70bd d455 653c 79cc 82bc
00000010: 620a 663c d58f 983d 98dc dd3d a94a 97bd
00000020: 855e 673c 92b7 793d 9bb6 65bd de34 dd3d
00000030: 214d a03d 663b 843c f95a b4bc 8b54 11be
00000040: 2a17 063e d7bc 05bc f515 9b3d 047a 723d
00000050: 0e95 683d 3553 163e e990 64bd 7899 b5bd
00000060: d618 dd3d 6429 723d 99a8 813d 229e a73d
00000070: 66c5 173d 4629 0ebd 42e9 cabc 705d 9dbd
00000080: f637 07bd 0753 e5bc 0473 08bd 1dbf 8a3d
00000090: 20bb d03d c7e2 79be 2715 76bd 950a e23c
000000a0: b0e3 15bd 5f8a 2bbe 7c99 e4bd 9109 433d
000000b0: 9100 1b3b 5579 b23d d01c 8f3d f023 0cbe
000000c0: 40b2 2ebe 8e86 dabc a715 e2bd 6d2b 973d
000000d0: e826 bb3c a59a 0a3e b230 5cbd 0885 d8bb
000000e0: bd05 1b3e 7a3b 9dbd c91e df3d 1b45 813d
000000f0: f87a 9ebb 86de abbd 8589 72bd cf61 41bd
00000100: 4aa0 d0bd 4095 e53d 23a7 1dbe 9df0 893e
00000110: 1b62 9b3d 0568 693d cb77 be3c 0349 c2bd
00000120: 0077 df3d e721 293e 9926 03bc 179c ad3c
00000130: 6639 e0bd 42cc efbd 966b dc3d 44fb 0f3e
00000140: 5a93 82bb 8a2c 2a3d 8956 bbbd 2755 23be
00000150: 5a30 80bd 0dc1 dabc 751f 7b3d 7c99 b13d
00000160: 3cb4 c4bd 1568 ab3d d467 9cbd 4c40 0b3d
00000170: 1810 c03d d41e f7bd 43fb e3bd 6152 7ebd
00000180: c7bf 0abd f172 a2bd 2636 7cbd 9a66 993d
00000190: 0e1a abbd e438 c5bd cbad 30be ba77 9dbe
000001a0: 3a73 61be 0a0a 543d e2d5 f73c 46a3 533a
000001b0: 2bf5 a2bd 36f9 a2bd 33e0 413d ee3a edbc
000001c0: 5e41 2fbd ca48 613c d198 fabc f6ef 943d
000001d0: 154a 423e 2cad 83bd ecff a4bc 35f4 4abd
000001e0: c0e0 193d b150 b8bc 8937 40bd 6629 68bd
000001f0: 3602 c9bd d41d 803d cc59 06be 9ab6 553c
00000200: dc74 df3c 9dc6 873d c3a4 48bc 57b4 a43d
00000210: 4bc1 f9bd 4485 42b9 3b7e 2abe f855 793c
00000220: 7818 bc3d 5950 b4bd 53ff 493d a94c f13d
00000230: 939a 893b 014f 9bbd fa5b 22bc c616 bbbd
00000240: ac12 dd3c 1271 9d3d 6cc4 a53b 755b d93c
00000250: 96f6 f03d 25ed d53c 0f24 0abd 92ec abbd
00000260: d10a 0d3d 15ba e23d 0f0a e93d c564 923d
00000270: 7891 ecbd 9e2a e83b 1817 9fbc 9585 3dbd
00000280: 6666 b13d 0443 9c3c 4c9d 00be 85f7 b93d
00000290: 6b7a 4c3e 85a1 10be 7633 b53c 68fe b63c
000002a0: eec8 32bd 70a2 f8bb 23b4 17be ea99 0bbe
000002b0: 9a62 c03c 99bf 9fbd e043 2cbe b7d5 d93d
000002c0: a785 08bd f84c 6f3d 46a7 903d 6a2f 993b
000002d0: 32ad 60bd 5449 dabd 1359 eebd 5bf1 803d
000002e0: ebd1 06be 9d2b 30bc 5423 4cbd 3996 7dbc
000002f0: 6ca7 e3bd 370b b0bd 2b9f bfbd 94f3 dd3d
00000300: c878 e53b 8bca bc3d ad1e 4e3c 5bf9 f73d
00000310: 5e5d dd3c 1c64 30be 5848 97bd 5d56 533d
00000320: 5ef8 2c3e ed51 e93d 663b 823d a95c 603e
00000330: 5f80 d93c 8111 bebc 75c3 313e 9e5b eebc
00000340: 69cd 003d 89f7 df3b 612c 38be 5cec 303e
00000350: 06fa 1dbd 031e b7bd 934e ff3b 7808 63bd
00000360: be35 05bd cc4c 153d 5f1b e33d 32cd 83bd
00000370: 253e cabc bce9 213e 7c13 c73d 5511 ac3c
00000380: 3192 cf3c 15fb 41be 10c8 c4bc e4e6 31be
00000390: 04aa 753d f7bd 8abd 0de5 d23d 5c1f aabd
000003a0: 108d 1ebe 027a 1b3d 5ed1 86bb 1b03 df3d
000003b0: 3e7d 793c 23e3 72bd 704d f7bd 3325 dcbd
000003c0: 9f93 6cba 289d bbbc 0ba8 0bbe 0b71 c83d
000003d0: 68ef ba3d 3360 e83d 8819 ae3b 24fb 593c
000003e0: 003c cc3d 280d b23d 2ebf ca3c 929b c83d
000003f0: 3e0d 4bbd bbb3 d13d 9742 733d c3c5 5bbd

inet.layer1.1.conv2.bias f4 [32]
-0.06401552 -0.10793107 -0.057788327 -0.049043737 0.025437148 -0.094228044 0.046509385 -0.0074087107
0.035074603 0.03831302 -0.106636755 0.03389732 -0.020986786 -0.097957335 0.11019158 -0.061315656
0.004944537 -0.044287585 -0.07400781 -0.034711868 0.09876446 0.15538736 -0.1007933 0.069077626
0.08765906 0.119597696 0.120347336 -0.011102947 -0.053595934 0.015187359 0.19918452 0.006634049
00000000: 921a 83bd f70a ddbd 74b3 6cbd 16e2 48bd
00000010: 9161 d03c a2fa c0bd a080 3e3d c5c4 f2bb
00000020: 63aa 0f3d 1dee 1c3d 5f64 dabd ebd7 0a3d
00000030: 7bec abbc db9d c8bd 20ac e13d 2026 7bbd
00000040: c805 a23b e666 35bd 6891 97bd 082e 0ebd
00000050: 0545 ca3d dd1d 1f3e b86c cebd 9278 8d3d
00000060: 9886 b33d a3ef f43d aa78 f63d 23e9 35bc
00000070: 6987 5bbd 67d4 783c 07f7 4b3e 7062 d93b

inet.layer2.0.conv1.weight f4 [64, 32, 3, 3]
-0.04465874 0.034912407 -0.0023169897 -0.04683253 -0.10264924 -0.071080774 -0.101550244 -0.135505
-0.14491355 0.022850782 0.019118257 0.08681421 0.008703688 0.053714246 -0.0101161655 0.0256578
-0.10608567 0.037464824 -0.027964495 -0.06313693 0.050713744 -0.035472866 -0.09077529 0.09067305
0.036713444 -0.011404119 -0.1271201 0.030678965 -0.049918298 -0.07931371 -0.05375512 -0.041635524
0.09521964 -0.0848918 -0.011936364 0.012838734 0.015707158 0.06442208 0.17650111 -0.04174475
-0.06603951 -0.040281422 -0.12877896 -0.010746595 0.0013240561 -0.12101633 -0.03173358 0.08065191
-0.08022116 -0.0829103 -0.014668845 -0.057142716 -0.0013611875 -0.0059187813 -0.119410336 -0.104574725
-0.050822962 -0.012331899 0.03915988 -0.1707929 -0.0036798008 -0.01673945 -0.0020808897 0.006903036
-0.11355964 0.08875352 0.11493819 -0.100607686 -0.040454805 0.038802136 0.009743643 -0.015553792
-0.013004596 0.052878715 0.07516695 0.09914774 -0.06465374 0.14030106 -0.0778581 -0.06806726
0.011985823 -0.02208025 0.050663847 0.12046327 -0.016981691 -0.050221067 -0.029706575 -0.052931793
-0.0043642772 0.12242744 -0.060848374 -0.028763872 -0.16489236 -0.023570526 0.114934675 -0.07969029
0.053685352 -0.1023222 0.00884467 -0.07225676 0.14830501 -0.020237708 0.0049445624 0.07415018
0.060212623 0.063674815 -0.039557304 0.08556012 0.04633195 -0.011210917 0.03830621 0.039606012
-0.0642179 -0.14173034 -0.05683113 0.008058489 -0.12941535 0.03474371 -0.0071331947 -0.020964485
-0.08385427 0.028409375 -0.0027928022 -0.015923912 -0.06983274 0.009454401 0.04125549 0.03942112
0.08351651 0.042718045 -0.023138456 -0.007220142 0.05139959 -0.08987716 0.1010269 0.15747076
0.07961649 0.032219306 0.041479412 0.008788404 0.064569235 0.00091052544 -0.080540024 -0.011696822
-0.08080548 -0.062306106 0.051818077 0.044836123 0.05228971 -0.030916277 -0.060473878 0.020864753
0.010869434 -0.09373679 0.00931163 0.11794909 -0.09129673 -0.064247966 -0.04659765 -0.13062832
-0.12099924 -0.08217571 -0.03269611 -0.045088008 -0.23052493 -0.06186739 -0.018996485 -0.0025173733
-0.02971031 0.11144075 -0.069441505 -0.0006531543 -0.020837383 -0.013986822 -0.08959873 -0.07517911
0.16449171 -0.015102246 -0.014621432 0.010498768 -0.040128637 0.009759511 0.032629054 -0.034278974
0.030051772 0.016867667 -0.033512726 -0.06668828 -0.0030454753 -0.070084244 -0.0687358 -0.06271058
0.011901916 -0.009224157 0.091699846 -0.041928213 -0.059398096 0.0052729044 0.019415313 0.010354398
0.02337288 0.1628558 -0.15450494 0.0420326 0.03348245 -0.022087768 0.022993598 0.050700754
0.03560115 -0.11334381 -0.07005704 -0.05275143 -0.15411462 0.15615307 -0.08973407 -0.1491936
-0.1627618 -0.007378849 0.055481456 -0.12368018 -0.06399738 -0.06795976 -0.017549723 0.054682545
-0.07042748 -0.08843139 0.039390422 0.07858281 0.013687947 0.010312214 0.038426083 0.025282761
-0.090126924 -0.07795285 -0.05900933 -0.021729657 0.06001679 -0.04342373 -0.03822829 0.015999906
0.08183166 -0.030798413 -0.064198166 0.056340728 0.11905261 -0.007545944 -0.05911443 -0.11413334
-0.0076312223 0.04483692 0.02145432 -0.128269 -0.054269794 0.06670347 0.10098707 -0.0128215775
00000000: 15ec 36bd 5000 0f3d a3d8 17bb 78d3 3fbd
00000010: c439 d2bd cc92 91bd 93f9 cfbd d3c1 0abe
00000020: 3864 14be 9031 bb3c e49d 9c3c a6cb b13d
00000030: ea99 0e3c 7803 5c3d 46be 25bc 4e30 d23c
00000040: 7243 d9bd b774 193d cc15 e5bc ef4d 81bd
00000050: 37b9 4f3d ff4b 11bd 65e8 b9bd cbb2 b93d
00000060: d660 163d 58d8 3abc c62b 02be 7452 fb3c
00000070: 2177 4cbd 3a6f a2bd 542e 5cbd 038a 2abd
00000080: 8402 c33d c1db adbd bd90 43bc 8e59 523c
00000090: 4cac 803c b9ef 833d b5bc 343e 8bfc 2abd
000000a0: b93f 87bd 22fe 24bd a2de 03be 7d12 30bc
000000b0: f38b ad3a 69d7 f7bd 12fb 01bd d42c a53d
000000c0: fe4a a4bd e0cc a9bd 9855 70bc 7b0e 6abd
000000d0: e069 b2ba 56f2 c1bb 688d f4bd 462b d6bd
000000e0: bd2b 50bd bc0b 4abc 1c66 203d 55e4 2ebe
000000f0: d028 71bb 2c21 89bc 895f 08bb dd32 e23b
00000100: f591 e8bd 68c4 b53d b764 eb3d 670b cebd
00000110: f0b3 25bd fdee 1e3d cda3 1f3c 55d5 7ebc
00000120: 3b11 55bc 5a97 583d 21f1 993d f80d cb3d
00000130: 2e69 84bd 15ab 0f3e 1174 9fbd d966 8bbd
00000140: 2f60 443c a4e1 b4bc e584 4f3d 72b5 f63d
00000150: 301d 8bbc 9bb4 4dbd 345b f3bc 02cf 58bd
00000160: 3602 8fbb 3dbb fa3d 253c 79bd 36a2 ebbc
00000170: 8bd9 28be fa16 c1bc df62 eb3d aa34 a3bd
00000180: 2ce5 5b3d 4d8e d1bd 3ce9 103c 5afb 93bd
00000190: 45dd 173e 8dc9 a5bc ff05 a23b 0ddc 973d
000001a0: 83a1 763d f167 823d d706 22bd 253a af3d
000001b0: 92c6 3d3d fead 37bc f9e6 1c3d ea39 223d
000001c0: ad84 83bd c221 11be c2c7 68bd c107 043c
000001d0: 7585 04be 6c4f 0e3d 93bd e9bb b6bd abbc
000001e0: cabb abbd c7ba e83c 7207 37bb dd72 82bc
000001f0: 7804 8fbd a2e6 1a3c 84fb 283d 0a78 213d
00000200: b40a ab3d 1ef9 2e3d dc8c bdbc f196 ecbb
00000210: 6088 523d 8411 b8bd 31e7 ce3d 0440 213e
00000220: f80d a33d 64f8 033d 51e6 293d 3dfd 0f3c
00000230: e03c 843d 54b0 6e3a 2bf2 a4bd 07a4 3fbc
00000240: 587d a5bd b034 7fbd 313f 543d 15a6 373d
00000250: bc2d 563d 2244 fdbc 75b3 77bd 8fec aa3c
00000260: b615 323c 13f9 bfbd cf8f 183c 4b8f f13d
00000270: c8f9 babd 7094 83bd 2ddd 3ebd 6ec3 05be
00000280: 73ce f7bd bd4b a8bd 5bec 05bd 34ae 38bd
00000290: ba0e 6cbe a968 7dbd 849e 9bbc 84fa 24bb
000002a0: 0963 f3bc 0c3b e43d 5937 8ebd 7138 2bba
000002b0: 29b3 aabc fc28 65bc 8a7f b7bd 81f7 99bd
000002c0: 8470 283e 696f 77bc bb8e 6fbc 0603 2c3c
000002d0: ed5d 24bd 5be6 1f3c 0ba6 053d 1c68 0cbd
000002e0: 222f f63c 102e 8a3c a444 09bd dd93 88bd
000002f0: 9996 47bb 5488 8fbd 5bc5 8cbd 686e 80bd
00000300: 4100 433c eb20 17bc 21cd bb3d ebbc 2bbd
00000310: 6b4b 73bd 54c8 ac3b dd0c 9f3c 7ea5 293c
00000320: 7b78 bf3c acc3 263e 8b36 1ebe 602a 2c3d
00000330: e524 093d 68f1 b4bc 125d bc3c 98ab 4f3d
00000340: 83d2 113d cd20 e8bd 117a 8fbd e211 58bd
00000350: 39d0 1dbe 97e6 1f3e 7fc6 b7bd 35c6 18be
00000360: 08ab 26be 46ca f1bb 8640 633d 094c fdbd
00000370: 0f11 83bd 7d2e 8bbd 70c4 8fbc cefa 5f3d
00000380: 483c 90bd 841b b5bd da57 213d 06f0 a03d
00000390: 6943 603c 8ff4 283c ab64 1d3d cb1d cf3c
000003a0: 7794 b8bd bea5 9fbd c4b3 71bd 6502 b2bc
000003b0: 2ad4 753d 15dd 31bd 4495 1cbd 3c12 833c
000003c0: 5b97 a73d f44c fcbc 547a 83bd 89c5 663d
000003d0: dbd1 f33d f743 f7bb f921 72bd bebe e9bd
000003e0: 550f fabb eba6 373d f8c0 af3c f358 03be
000003f0: 014a 5ebd d49b 883d 4fd2 ce3d 9811 52bc

inet.layer2.0.conv1.bias f4 [64]
0.051643107 0.020928701 -0.08414791 0.022308193 0.123918094 -0.1315067 0.1339425 0.08223498
0.0864836 0.11088845 0.11727026 -0.0748033 0.14676523 0.013272428 -0.035363786 -0.031182522
-0.08808898 -0.017224034 0.07523369 0.14362815 -0.030957583 0.066726044 -0.050863933 0.09365336
-0.032324735 -0.070367984 -0.00051516044 -0.13298088 0.10998301 -0.024188196 -0.052523095 -0.012493488
-0.060486495 -0.0724083 -0.0013265297 -0.067087926 0.1355878 0.029412167 -0.01691389 0.052674867
0.04758489 0.01312781 -0.031340543 0.031677533 0.13996376 -0.067367 -0.021793937 -0.055909157
0.13174203 0.029998556 -0.036106337 -0.035862654 -0.028461602 0.028691003 0.057209145 -0.090094596
-0.040970873 -0.01259153 0.038333416 0.023355078 -0.0011279775 -0.032959 -0.024096277 0.087422594
00000000: b987 533d ab72 ab3c bd55 acbd acbf b63c
00000010: c5c8 fd3d b1a9 06be 3928 093e d06a a83d
00000020: 501e b13d 7c19 e33d 642b f03d 7932 99bd
00000030: a049 163e 9974 593c 9ed9 10bd 7d72 ffbc
00000040: ff67 b4bd 6b19 8dbc 1f14 9a3d 4213 133e
00000050: c29a fdbc aaa7 883d b356 50bd 55cd bf3d
00000060: f166 04bd 171d 90bd d50b 07ba 242c 08be
00000070: c63e e13d 5326 c6bc 7522 57bd 7db1 4cbc
00000080: b0c0 77bd ce4a 94bd f3de adba 6565 89bd
00000090: 87d7 0a3e c9f1 f03c 008f 8abc 9ac1 573d
000000a0: 60e8 423d 0716 573c f15e 00bd 4dc0 013d
000000b0: a952 0f3e b6f7 89bd 3389 b2bc 0001 65bd
000000c0: 62e7 063e 88bf f53c 3de4 13bd b8e4 12bd
000000d0: 4e28 e9bc 6509 eb3c 2354 6a3d 8483 b8bd
000000e0: 13d1 27bd b44c 4ebc 8003 1d3d 2653 bf3c
000000f0: a5d8 93ba 0400 07bd 8e65 c5bc 9e0a b33d

inet.layer2.0.conv2.weight f4 [64, 64, 3, 3]
0.113495775 0.10269317 -0.10731935 -0.042723786 -0.04810316 -0.013459087 0.03422397 0.07192731
0.15709805 -0.053037606 -0.11441039 -0.00596485 -0.008434487 -0.03953925 0.018061845 -0.094287306
0.21271312 0.14272167 0.13733573 -0.056399606 -0.04326053 -0.013952283 -0.053424157 -0.02303828
0.07061549 -0.019794937 0.05638312 -0.06503314 -0.039220788 0.08553881 -0.01811452 -0.027498927
-0.10045747 0.024625875 -0.0336625 -0.0019445074 -0.15826719 -0.021368545 0.063457824 0.114796065
-0.14207546 0.062126055 -0.03807892 -0.1067812 0.0013371629 -0.19964074 -0.17721668 -0.0420549
0.007026378 0.045773387 -0.050662335 0.024355626 0.06825153 -0.06984089 0.06092915 0.030395502
0.021867974 0.016317276 0.04533623 -0.07428804 -0.03915747 -0.016567668 0.10128707 -0.09115791
-0.023612285 0.13710546 0.059082493 -0.081583954 0.2333253 -0.022260908 0.05315498 0.18252261
0.07216086 0.013453516 -0.061341293 -0.1374791 -0.040777124 -0.020827651 3.410282e-05 -0.07336177
-0.11294069 0.13761306 0.028729472 0.03752386 0.016289452 -0.06948508 -0.08747026 -0.08053745
-0.08231126 -0.003863634 -0.06639854 -0.020868333 -0.12633027 0.1134983 -0.070544265 -0.0033755524
-0.07152698 0.0381649 0.06091754 0.04035901 -0.028695174 -0.1900426 -0.019490665 0.059826057
0.014023265 0.033447865 -0.011535076 0.049747918 0.023649765 -0.17888786 -0.09192176 -0.040732756
-0.083305426 -0.0105788335 -0.032783125 -0.17064409 -0.030742891 0.06469739 -0.10828122 0.022918666
-0.020237762 -0.012822406 0.011634203 0.1017719 0.006412592 -0.08049728 0.04186711 -0.09480369
0.020126307 0.029572455 0.012455612 -0.039952762 -0.029923279 0.06900068 -0.0665353 0.061724078
-0.022944974 -0.001176725 0.017638413 -0.091518156 0.08643081 0.097981535 -0.013791351 0.15175541
-0.019050263 -0.10303724 0.060921747 -0.044730708 0.025097376 -0.2391238 0.008206606 -0.023939654
-0.046737753 -0.020633424 0.0729472 0.02585508 -0.04216646 -0.21049099 -0.0053697075 -0.1249184
0.034630027 0.08169048 -0.10823687 -0.00019868759 0.027663976 0.09369678 -0.031242343 0.09334845
0.047600556 -0.012131172 -0.09567508 -0.046703685 -0.11269163 -0.07001565 -0.081500955 -0.14625506
0.058353137 -0.03714203 -0.018266313 0.10744821 0.059494797 0.005059896 0.11003774 -0.014804041
0.022642085 -0.09807132 -0.01470064 -0.042254724 -0.1177302 -0.03487344 -0.148498 -0.013460173
-0.01293495 -0.031078884 0.09069555 0.02340166 -0.008536334 -0.11654253 -0.05539596 -0.110057354
0.025766855 0.09201094 -0.06224859 -0.06007008 0.115108185 0.10196134 0.057894427 -0.041105412
-0.07318616 0.15892008 0.07266885 -0.058898136 0.047803562 -0.014302741 0.033734392 0.037035458
-0.0021023117 0.020365452 -0.04749313 -0.020810494 0.03628574 0.04731823 -0.06997012 0.08011532
-0.055357095 -0.0019009978 -0.028576942 0.066692315 0.049062636 0.113233045 0.13695599 -0.1319602
-0.03313702 0.0074505717 0.120299496 0.033855174 0.08085378 -0.11857662 -0.019608902 0.036683343
-0.036208488 0.0022909734 0.07379045 0.031074425 0.01217327 0.12931202 0.1042597 -0.032451134
-0.03924824 -0.0009053735 -0.11647354 0.13130444 0.07701537 0.0030153564 0.019618401 -0.037995838
00000000: 7970 e83d cc50 d23d 3fca dbbd 23ff 2ebd
00000010: d207 45bd 8183 5cbc 6f2e 0c3d a04e 933d
00000020: 50de 203e f63d 59bd ff4f eabd ca74 c3bb
00000030: cd30 0abc e9f3 21bd 6ff6 933c b419 c1bd
00000040: 78d1 593e a125 123e bda1 0c3e 4603 67bd
00000050: f431 31bd 1e98 64bc 4ad3 5abd c6ba bcbc
00000060: db9e 903d fe28 a2bc fdf1 663d 1830 85bd
00000070: faa5 20bd f92e af3d e764 94bc 6e45 e1bc
00000080: a5bc cdbd 34bc c93c b1e1 09bd d7de feba
00000090: cb10 22be 160d afbc 2df6 813d 331a eb3d
000000a0: 3b7c 11be e477 7e3d a4f8 1bbd 1ab0 dabd
000000b0: be43 af3a 9f6e 4cbe 4a78 35be c241 2cbd
000000c0: 883d e63b e07c 3b3d 4f83 4fbd 7385 c73c
000000d0: 75c7 8b3d be08 8fbd d890 793d fdff f83c
000000e0: 7724 b33c cfab 853c 7cb2 393d 5424 98bd
000000f0: 9563 20bd ebb8 87bc 986f cf3d 00b1 babd
00000100: 8d6e c1bc 6065 0c3e 7c00 723d 7d15 a7bd
00000110: d4ec 6e3e 825c b6bc 09b9 593d 35e7 3a3e
00000120: 13c9 933d 236c 5c3c 0241 7bbd 52c7 0cbe
00000130: ea05 27bd c09e aabc a009 0f38 b23e 96bd
00000140: 734d e7bd 70ea 0c3e 125a eb3c 9eb2 193d
00000150: 7571 853c 324e 8ebd 9c23 b3bd d2f0 a4bd
00000160: ce92 a8bd 0635 7dbb f5fb 87bd 11f4 aabc
00000170: b95c 01be cc71 e83d 8379 90bd 5f38 5dbb
00000180: bd7c 92bd cc52 1c3d ac84 793d 7d4f 253d
00000190: 2412 ebbc 879a 42be e3aa 9fbc 2b0c 753d
000001a0: d6c1 653c a100 093d 9efd 3cbc 79c4 4b3d
000001b0: 27bd c13c 612e 37be 7a41 bcbd 64d7 26bd
000001c0: 099c aabd d852 2dbc 9947 06bd 53bd 2ebe
000001d0: 84d8 fbbc 1180 843d 8bc2 ddbd edbf bb3c
000001e0: aac9 a5bc 1215 52bc 629d 3e3c c96d d03d
000001f0: b820 d23b c2db a4bd d97c 2b3d 7028 c2bd
00000200: eddf a43c ef41 f23c a012 4c3c 82a5 23bd
00000210: aa21 f5bc 3b50 8d3d a943 88bd 63d2 7c3d
00000220: 19f7 bbbc 573c 9aba 6f7e 903c df6d bbbd
00000230: a302 b13d 8baa c83d 1ef5 61bc c565 1b3e
00000240: 4c0f 9cbc 3005 d3bd 1589 793d 8c37 37bd
00000250: 0399 cd3c dfdc 74be 0075 063c 181d c4bc
00000260: 1670 3fbd 6d07 a9bc 5765 953d 08ce d33c
00000270: bdb6 2cbd f38a 57be 5ff4 afbb 38d5 ffbd
00000280: 37d8 0d3d 574d a73d 4bab ddbd cb56 50b9
00000290: 909f e23c 19e4 bf3d f1ef ffbc 792d bf3d
000002a0: cdf8 423d d3c1 46bc 4cf1 c3bd 5d4c 3fbd
000002b0: dfca e6bd 5d64 8fbd f9e9 a6bd e3c3 15be
000002c0: b303 6f3d 3e22 18bd 3ca3 95bc cf0d dc3d
000002d0: d1b0 733d 7ccd a53b 775b e13d a68c 72bc
000002e0: e57b b93c 9ed9 c8bd f4da 70bc 4a13 2dbd
000002f0: 881c f1bd 74d7 0ebd dc0f 18be 0f88 5cbc
00000300: 1ded 53bc 2599 febc 97be b93d d7b4 bf3c
00000310: fbdb 0bbc daad eebd e0e6 62bd c065 e1bd
00000320: 0315 d33c 3b70 bc3d 61f8 7ebd 0b0c 76bd
00000330: d7bd eb3d 1bd1 d03d b522 6d3d 265e 28bd
00000340: a0e2 95bd f2bb 223e 68d3 943d 2c3f 71bd
00000350: abcd 433d 0b56 6abc 132d 0a3d 7eb2 173d
00000360: f0c6 09bb 73d5 a63c 2888 42bd c57a aabc
00000370: 5ba0 143d c3d0 413d 7f4c 8fbd 8013 a43d
00000380: 1fbe 62bd e72a f9ba 311a eabc fb95 883d
00000390: e7f5 483d bae6 e73d 313e 0c3e 9320 07be
000003a0: afba 07bd ed23 f43b 955f f63d b9ab 0a3d
000003b0: ab96 a53d 4dd8 f2bd d9a2 a0bc 4641 163d
000003c0: 5a4f 14bd 2824 163b 731f 973d cb8f fe3c
000003d0: 6572 473c 5f6a 043e 1c86 d53d 7beb 04bd
000003e0: c3c2 20bd 9656 6dba ae89 eebd ac74 063e
000003f0: 3cba 9d3d 499d 453b c5b6 a03c 86a1 1bbd
